SNN-SP/best_model.pth (torch, 45285 bytes, 7 tensors)

hidden.0.weight f8 [50, 2]
-0.6253455758117669 -0.6170086324076381 -0.4442670449866829 -0.64533360814371 0.04028639696414827 -0.008891844866172926 0.6472680017170196 0.6075962515073703
-0.5758249622734068 -0.5047235123412042 -0.45719379224480516 -0.15435782770825884 0.4854166947441824 0.5135358087168713 -0.1640471377208601 0.169041894334549
-0.5930406877133552 0.2862214955037823 0.17865810392402426 -0.05934106251013305 -0.570848536308843 0.3005078084118489 -0.297081437969769 -0.2356928527131835
-0.6940129979564195 -0.6182234773305275 0.5689547941371176 -0.4666015249315077 -0.4053820899621362 -0.47408547507824117 -0.2664529913495815 -0.31143775007907515
-0.3797286260996958 -0.24716014815235016 0.1575830756743456 0.11237295777377526 0.5442144177741475 -0.6152864724258015 -0.3044822747365976 -0.09308916188981335
0.5983833111585449 -0.5169344354408717 -0.08780954396844594 -0.30882485282852484 0.6461862310151615 0.4774514481779075 -0.16029584232781097 -0.5616725005732359
0.1907558745737146 0.12488105312940918 0.3470763572855748 -0.0015254081675390473 -0.5735339679751731 0.1463681640305994 0.02798782256249216 0.6874718897603928
-0.3838143132583995 -0.17097934071661863 0.17847034029806208 -0.3260473111190782 -0.6847608714463769 0.3042927135150911 -0.33337319185419795 0.1763213993412559
-0.21243178281817945 -0.07104829007270991 0.15874221453414397 0.5630859347036447 0.23629709793807743 -0.4937112190623012 0.07734311643488154 0.6602986704529054
-0.28906199262217047 -0.5734622615508573 0.23820844030723112 -0.644514855931858 0.061181916315834285 0.20189805500277783 -0.4741034321780456 -0.3014518815875514
0.19431802025783607 0.0022279928136790415 0.2809016709524837 -0.4482775242986573 0.5564636640495891 0.6675476832542292 -0.3941447442777419 0.29864187120441427
-0.6963932831382339 -0.5518186988494728 0.5917469713024052 0.33055123967524785 -0.6033673712123767 -0.01881975127103208 0.6425887321117659 -0.2898055267002352
0.08587553778315597 0.15196879381175152 -0.5631492929340813 0.6002082158086582
00000000: 1bea 99b9 d402 e4bf b54b 31e3 88be e3bf
00000010: a222 3a0b df6e dcbf cc94 bfaa 92a6 e4bf
00000020: c18f de2a 6ba0 a43f 53e6 3537 e335 82bf
00000030: 5ee6 6362 6bb6 e43f deae acb1 6d71 e33f
00000040: 32e9 a578 286d e2bf 1ee3 60ec b126 e0bf
00000050: c20a 68c0 a942 ddbf cebc f14e ffc1 c3bf
00000060: 97f4 362f 1111 df3f a871 f8a5 e26e e03f
00000070: 70ba c121 7fff c4bf 2d0f e92f 2aa3 c53f
00000080: 82a3 dd76 30fa e2bf 1076 a6f6 7351 d23f
00000090: 5870 c2cc 44de c63f 90f2 94a5 f361 aebf
000000a0: 754f 4d26 6444 e2bf dc93 541a 853b d33f
000000b0: 3b0b 15dd 6103 d3bf b3eb 26f3 2e2b cebf
000000c0: 7718 27bf 5a35 e6bf e020 189a 7cc8 e3bf
000000d0: 2815 37af e034 e23f 2d0d 76a4 ccdc ddbf
000000e0: 5660 b1b8 c7f1 d9bf 0e0f be9a 6a57 debf
000000f0: 0524 f1d8 900d d1bf b215 d599 98ee d3bf
00000100: 5201 9d4b 794d d8bf 862c 9898 f1a2 cfbf
00000110: fc52 36a6 ae2b c43f ecd8 9762 79c4 bc3f
00000120: ac40 cb5a 346a e13f 45ae 9741 6db0 e3bf
00000130: d824 0d39 a37c d3bf b3c5 edf9 b0d4 b7bf
00000140: 95bd fcc1 f425 e33f efa1 cc15 ba8a e0bf
00000150: a503 9faf af7a b6bf 33cb c550 c9c3 d3bf
00000160: 65bd 2abf 8ead e43f 6086 d684 908e de3f
00000170: cac9 3dfc 9284 c4bf 70c9 a09b 38f9 e1bf
00000180: 9130 6841 b06a c83f a5b2 1467 34f8 bf3f
00000190: 1f68 f0c0 7f36 d63f 0f13 548c 06fe 58bf
000001a0: bf26 73e8 635a e2bf 39ef d726 31bc c23f
000001b0: d05d 5efa d6a8 9c3f 2716 6e0c c5ff e53f
000001c0: 1b9e cbe8 6990 d8bf c6b2 55aa a6e2 c5bf
000001d0: f06d 71b9 1dd8 c63f a321 8d8a f5dd d4bf
000001e0: 2e2a 8ea1 8fe9 e5bf a556 3d25 8879 d33f
000001f0: 5b1f 1883 fc55 d5bf 24b9 e019 b391 c63f
00000200: 19e3 eaf3 f630 cbbf f48b 4c82 3830 b2bf
00000210: 119a f535 aa51 c43f cb78 4ccb cc04 e23f
00000220: f951 e4b9 fb3e ce3f b49d e2f0 f698 dfbf
00000230: d695 a82b c2cc b33f 1500 66ad 2a21 e53f
00000240: 500b 35df fd7f d2bf 763c 5b87 cd59 e2bf
00000250: c917 603a 9d7d ce3f 716e 809e dd9f e4bf
00000260: 85c1 5d73 3c53 af3f d174 aea3 cbd7 c93f
00000270: 5e11 08ec b557 debf dd1d 2fd5 fc4a d3bf
00000280: 98f3 03b3 69df c83f 26ba a788 7040 623f
00000290: ad7d 8800 4bfa d13f c640 9936 94b0 dcbf
000002a0: 8d2b d0e2 8cce e13f 911e 83f5 8c5c e53f
000002b0: 370b a4e0 aa39 d9bf 4f82 82cb f21c d33f
000002c0: f572 0791 da48 e6bf fb26 1cb0 7fa8 e1bf
000002d0: 3707 2858 97ef e23f 37ad 0363 c027 d53f
000002e0: af94 da16 c94e e3bf 6068 e920 7c45 93bf
000002f0: 2957 a63e 1690 e43f 062a d87a 2c8c d2bf
00000300: e318 4e72 f0fb b53f 9f8e b7a3 b673 c33f
00000310: 5e5b 7daa 5105 e2bf cf09 36dc e734 e33f

hidden.0.bias f8 [50]
-0.19123050955121793 -0.19039695445227942 0.42951993712758574 0.07316089969000746 0.26663967305227815 0.07678999414107499 -0.06041067567470907 -0.2044367256848993
0.11364683558557867 0.22778973815612372 -0.1561252736729225 -0.4277526822812048 -0.6777385128560605 -0.6677397006744364 -0.3749714702784898 0.3462484866925765
0.5927874887737705 -0.5952561058764264 0.7498431018237675 0.1035231624081441 0.19013594351061028 -0.4385389593424811 -0.31423590270939644 -0.15791027640750324
0.4609294672458217 0.307587629199232 -0.2971135852442219 0.3769317892767356 -0.3681179097545233 -0.7192482164990786 0.5049119812827382 0.5380503532295565
-0.08261459820761474 -0.08775734833709133 -0.5872960222548325 0.5954051836493547 -0.010958228922488225 0.35228221858576086 0.30690970591722494 -0.41731475380311256
-0.5804112854640906 0.20213773524350392 -0.19308654681422652 -0.42673177208544866 -0.21067753738147874 0.08055128190533371 -0.16764182942788614 -0.0528752310832537
-0.09913921646763414 0.19198558694656992
00000000: f98b 42c8 3d7a c8bf 97b5 506a ed5e c8bf
00000010: 6859 bc30 417d db3f 7db7 8337 acba b23f
00000020: bbd7 e4d8 9f10 d13f 7ef6 7e51 82a8 b33f
00000030: 754b b4e8 25ee aebf e67f 758d fb2a cabf
00000040: 824a 2282 f517 bd3f ad5a dfd1 3628 cd3f
00000050: 548b 40b8 e9fb c3bf b023 4bc9 4c60 dbbf
00000060: 489b 7ead 08b0 e5bf ad66 14a6 1f5e e5bf
00000070: 97dd 7156 88ff d7bf 3795 a869 ef28 d63f
00000080: aa5c b877 1df8 e23f 5d79 6f88 560c e3bf
00000090: 60db eef5 b6fe e73f d2e5 eb74 7e80 ba3f
000000a0: d109 96e5 5f56 c83f 0c76 19b6 0511 dcbf
000000b0: d56a 57e7 701c d4bf 9daf 6f68 6736 c4bf
000000c0: 2f58 e54e de7f dd3f ee26 0406 84af d33f
000000d0: 378f f4b2 e803 d3bf c30b f182 a61f d83f
000000e0: 74ec dd6b 3e8f d7bf 603c f2d5 1404 e7bf
000000f0: 3df9 de2b 3d28 e03f 351c d75f b537 e13f
00000100: 9050 79f5 3a26 b5bf b56b 17fd 4377 b6bf
00000110: fcf8 1407 21cb e2bf 3f92 f42b 8f0d e33f
00000120: 48db c096 4471 86bf 5171 f2b7 ca8b d63f
00000130: 4b53 6f9b 68a4 d33f 1040 eef0 48b5 dabf
00000140: da85 29b0 ba92 e2bf 0245 1439 a6df c93f
00000150: b3ad ee59 0fb7 c8bf 285a 51c7 924f dbbf
00000160: 0b13 8746 7bf7 cabf 4b2d 6f41 029f b43f
00000170: 02cd 6a97 4975 c5bf c7c2 8a58 7612 abbf
00000180: 01c4 7a0c 3061 b9bf b293 9ed4 fb92 c83f

hidden.2.weight f8 [50, 50]
-0.11510546558859128 0.024625770708071797 0.07209761960036239 -0.019251360627848414 0.04092585032161982 0.08211198306092214 0.012946722962574235 0.08731395202946424
0.060469567254053135 -0.03735900111306762 -0.06590880294281733 0.12396972199788205 -0.01841973244765311 -0.07470435072888208 0.10777110495908347 0.06534855092015408
0.13879836524258454 0.13312048130606596 0.011377286118048755 -0.08853972068769687 0.047117585501041004 0.12532316472096358 0.0664624318733836 0.09290738966222646
-0.047725797341252346 -0.11572694601997607 -0.10405377054669021 -0.12201033025741863 -0.027244085187398896 0.032557389755644726 0.00943335971098172 -0.023443986900247786
0.08147387118873158 0.08029285254181215 -0.0755457751136059 0.05167858254473409 0.04013903283901215 -0.11802773381142755 0.06953033178639617 -0.06027304617784524
0.044729572828879884 0.007059076184697008 -0.13533923830860475 0.018249641689609224 -0.05705839933830618 -0.0832538134777689 0.10456599005720758 -0.07195273228939594
0.05384685798258207 -0.07961390178138876 0.11557755215988386 -0.04331980437657224 -0.13458453862500994 -0.11730508049463631 0.12851410896975826 0.09436229198005444
0.08959302243981192 0.09340673690184255 -0.04954632619933946 -0.04075254574786587 0.08150710851358792 -0.13699449510737136 -0.07510215417138034 -0.04978703205707206
0.017866851027524774 0.10746998006610256 -0.022407448998610028 0.08764615449414218 -0.01872484599634466 -0.08225620527831774 0.0787363414911659 0.11725405030245595
0.10151076285315559 -0.1093608483271891 -0.10347089232337853 0.06576041496075372 0.0515643001086557 -0.12957793598821157 0.11836595027795965 0.02509439409591282
0.07189056131016099 -0.03207802392979485 -0.0013275719841137844 0.05119014380754155 0.10700286298170979 0.01780075775996137 -0.12858505628564068 0.08054004103913004
0.11111855751973147 0.06833745801893801 -0.12579494094909774 0.039082500546651085 0.0436704442486876 -0.11748564497977615 0.051318100635493274 -0.08681114416038521
0.11132076798203272 0.09360712778652851 -0.005514482866434565 0.12431312897754772 -0.11993391136967849 0.06325185950925159 -0.11890979797398893 -0.13753970499675558
-0.09580068773871278 -0.0380912634511682 -0.08367775985217986 -0.016678212988814452 -0.017681028806134206 -0.13900655323455244 -0.0032525247165343207 0.05075239757935334
0.11133991729042068 0.03113986673071224 0.11965743842994117 -0.105371287681485 0.0030804724168024306 0.057744804733369945 -0.0634213960365112 -0.05449247836516342
0.032925601581806296 -0.09538155513788316 0.06324184421640892 -0.03889700481320799 -0.08909980649624889 -0.11970549990622324 0.11840078820977787 -0.12401688554671207
0.04896190261287776 0.09867703443177148 0.04547294130692968 -0.09599598241638257 -0.07595646503261622 -0.018568773476728976 -0.018051642468582145 0.03123857907041148
0.024527470551993388 -0.03509298410469139 0.08300877586243192 -0.1202730557404738 0.007890576067234952 0.008100683613881035 0.04092365440819794 0.04003546112428348
-0.06616293732868346 0.0032820314610417993 0.1360348730268856 -0.1279279707886123 0.04153600527672929 0.06701635207427212 0.09871915220078581 -0.0794733465244167
-0.08108617554605295 -0.01753356271893672 -0.11862281740530864 0.02775393902488709 -0.05242438752942678 -0.02852697900894324 0.008947114955981878 0.04616372843222512
-0.14364807009531183 0.053804879488593846 0.11595917623351847 -0.0007963234497063994 -0.11727359804649111 -0.027431386803577415 0.022000726860246293 0.10431555965225946
-0.02448614288733329 0.015625290165885136 0.10765806964415714 -5.5543353817360853e-05 -0.1296346612640176 -0.0524562000234318 -0.006102290729234338 -0.08520852059265942
-0.051207326488498406 0.08745742748048921 -0.027391637531438532 -0.042063500626560696 -0.1321061690479195 -0.12224917164981654 0.009493781665632663 0.042212591445321
-0.08264298469273372 -0.0226394706729336 0.14649893263934508 -0.10551177457002213 -0.1158239125359062 -0.034307239923908696 0.08984294644986654 0.06569562582789669
0.04763743863847614 -0.006988075672479856 -0.10100654235676969 -0.0875759089113722 0.05466543356614811 0.08411973748699256 -0.09560119270650676 0.0730452323504643
-0.014001500145360434 -0.10808618130955275 -0.12584814156312005 0.0441056151721909 0.003738185380618032 0.04345859621205553 -0.05873369586181288 0.05006763258729786
0.020776983985265236 0.028307995524519545 0.12449771447118099 -0.010381710405897651 0.006590199013832188 -0.01747567575863801 -0.10115623109700975 0.06260988057674827
-0.005326080881896458 -0.16894616673845342 0.13176512409962907 -0.13295904572466735 -0.028741902951149156 -0.04597773181141844 -0.01985780718429074 0.0924036888418299
0.097839672062746 -0.058349452576189634 -0.05992385330390813 0.039707855298440425 -0.14266141877279606 -0.07025441563069326 -0.14519778055730986 0.12049878877029642
-0.12958976194178543 -0.12201745564720932 -0.016264881393093077 0.0019702407626800817 0.041847964191337385 -0.032872782123359146 -0.05856698782990054 -0.02346727524994888
-0.008025200911783992 -0.1325795366704493 0.11440332577903921 -0.10529603773584936 0.1397353607769673 -0.0905866826499071 -0.1386470344886922 0.029066990759607815
0.11523795902270283 -0.0618829623355725 -0.11566911278193798 -0.04785727617647253 0.07988519349015744 0.027744740065545465 -0.0013556406839441034 -0.12680031724739801
00000000: f239 4b42 8d77 bdbf dbe1 517f 7f37 993f
00000010: bd91 4d56 fd74 b23f 4a50 33f1 a0b6 93bf
00000020: 777b 62a9 3bf4 a43f d73a db79 4a05 b53f
00000030: 2f8f b7bd cf83 8a3f c878 7308 355a b63f
00000040: 1bd4 84fb ddf5 ae3f 29d4 fb0f b820 a3bf
00000050: b96c 2839 66df b0bf 59d4 accd 7abc bf3f
00000060: b2de da51 9fdc 92bf c3dc 3f07 d31f b3bf
00000070: afc7 401b e396 bb3f 7d05 0bc1 aeba b03f
00000080: ce42 ba13 25c4 c13f 1e94 d188 170a c13f
00000090: f2a1 5a7e f94c 873f 7729 c004 8aaa b6bf
000000a0: b83f 96d1 cb1f a83f 7731 f4e6 960a c03f
000000b0: 360e 4f93 ae03 b13f 09ef 2758 c7c8 b73f
000000c0: fc2c 8305 846f a8bf 1cf8 6bf8 47a0 bdbf
000000d0: 9205 8695 44a3 babf 5bd2 3aaa 113c bfbf
000000e0: eea8 8e9b dfe5 9bbf b3bb 7cb8 5cab a03f
000000f0: 90be 991b cc51 833f ae00 1954 b301 98bf
00000100: 35ef 3bbc 78db b43f b606 c587 128e b43f
00000110: adc2 76c9 f756 b3bf 7cd5 dd7b 9d75 aa3f
00000120: 675a ac72 1a8d a43f 13b7 bdc8 1037 bebf
00000130: 0c44 1a65 bdcc b13f 910a 54d4 1bdc aebf
00000140: 1d9d ed68 cbe6 a63f 63e5 a655 fae9 7c3f
00000150: 3954 33d1 cb52 c1bf 4be2 e1b8 08b0 923f
00000160: 1582 3d2e c236 adbf 4d80 2736 1f50 b5bf
00000170: 31cf 9133 d6c4 ba3f ca71 0a88 7e6b b2bf
00000180: 941a 0ebc d091 ab3f db40 75a0 9361 b4bf
00000190: f0ad ad8e 7d96 bd3f b10b 226e 032e a6bf
000001a0: 8788 f8ef 103a c1bf 620d 61ac b407 bebf
000001b0: b5c2 8c7b 2673 c03f f2a9 078e 2028 b83f
000001c0: 572b 547d 91ef b63f 8130 3800 81e9 b73f
000001d0: 4883 53d5 225e a9bf fa80 6e86 84dd a4bf
000001e0: 1217 755d a6dd b43f b7ed 1b1e 0989 c1bf
000001f0: 6175 0610 e539 b3bf 156a e694 af7d a9bf
00000200: 2f05 6213 b04b 923f e288 af11 2783 bb3f
00000210: e113 8b72 faf1 96bf 3a29 2c77 fa6f b63f
00000220: ef2e b524 9b2c 93bf 6d3d 901f be0e b5bf
00000230: 2e14 b69b 1028 b43f e061 5f87 5c04 be3f
00000240: e574 a5fe 9bfc b93f 2331 0793 12ff bbbf
00000250: c4e9 9d82 117d babf 3ab9 a0af acd5 b03f
00000260: 4832 37cd a266 aa3f 5d20 ad82 0296 c0bf
00000270: 5c5f 671d 3b4d be3f 56cc d147 58b2 993f
00000280: 8ddd b779 6b67 b23f bec5 65df 876c a0bf
00000290: 6689 4f90 3dc0 55bf c7d5 0f33 9835 aa3f
000002a0: 47b6 1525 8a64 bb3f 9f34 b1a1 5c3a 923f
000002b0: 8d25 c0a1 7975 c0bf 6814 48aa 459e b43f
000002c0: 1ba4 860a 4472 bc3f 027a 484b 907e b13f
000002d0: d176 b072 0c1a c0bf a135 631b 9f02 a43f
000002e0: b026 b3f3 f85b a63f e406 f00a 8a13 bebf
000002f0: 2435 d8b7 5d46 aa3f d4e1 1851 4139 b6bf
00000300: 0033 d991 847f bc3f 8300 8400 a3f6 b73f
00000310: b10f 0db9 5a96 76bf 0508 6c37 fcd2 bf3f
00000320: 229e 0323 fdb3 bebf 47e0 001c 4631 b03f
00000330: 58e5 785d df70 bebf 2368 6eab e69a c1bf
00000340: 02a7 c5d4 6486 b8bf 107a 92b5 b280 a3bf
00000350: 31b8 f7d9 e76b b5bf a2e7 5eed 1714 91bf
00000360: 418c edc1 f91a 92bf 1b3a 097c f7ca c1bf
00000370: 97aa 2ee9 09a5 6abf df04 98df 37fc a93f
00000380: 876f 80d7 c580 bc3f a340 d714 21e3 9f3f
00000390: 729c c7b0 dea1 be3f d385 87da 9cf9 babf
000003a0: 0929 2a09 383c 693f 5efd af1f ba90 ad3f
000003b0: 48ee d775 623c b0bf 99a8 e928 70e6 abbf
000003c0: 886e fddb 9fdb a03f d075 f5f3 ec6a b8bf
000003d0: a3f0 a514 9e30 b03f fd8f 2be7 4eea a3bf
000003e0: 9d37 fbb2 3ecf b6bf 9fa1 3f07 05a5 bebf
000003f0: 8a7e 2e99 834f be3f df2c 9313 92bf bfbf
00000400: 59ca f1d4 8811 a93f 7a2f c0eb e542 b93f
00000410: 1e4a 88b7 3a48 a73f d497 0655 3193 b8bf
00000420: 681f 3c05 e271 b3bf f1ce 3c4b b103 93bf
00000430: fea4 2a38 217c 92bf 3b78 ec8d 01fd 9f3f
00000440: 8f66 7faf ba1d 993f dcee 1826 b5f7 a1bf
00000450: 1732 9c29 1040 b53f 4bcd fe08 37ca bebf
00000460: f134 3e31 ef28 803f 752c 9359 1797 803f
00000470: e6cc a1fa f1f3 a43f 220c 6b28 877f a43f
00000480: c5b3 08e4 0df0 b0bf 2f8c 4439 ebe2 6a3f
00000490: d60b 6239 9769 c13f 10ef 6399 f15f c0bf
000004a0: 2042 8a10 3544 a53f deca 74d0 fb27 b13f
000004b0: e4f3 308a a845 b93f 16de 3980 5d58 b4bf
000004c0: 6bc5 2048 10c2 b4bf 293e d779 51f4 91bf
000004d0: a6af 50a1 105e bebf 3ecc c951 876b 9c3f
000004e0: 9e47 e78b 5ed7 aabf af9e 9627 2d36 9dbf
000004f0: 7d34 0971 dd52 823f 3a73 c1af c5a2 a73f
00000500: 4ab0 9859 0f63 c2bf 3697 892b 508c ab3f
00000510: 7714 9825 80af bd3f 0721 3696 0b18 4abf
00000520: eb3e 4b7c a405 bebf cc37 d234 f916 9cbf
00000530: 5175 69c9 5b87 963f c79e 2bad 6cb4 ba3f
00000540: bb07 a03b e512 99bf 0b0f 0379 1300 903f
00000550: 50ab 45b0 7a8f bb3f 1163 f11a e71e 0dbf
00000560: 914b 475b de97 c0bf f569 25ff 89db aabf
00000570: 32ce cd31 b7fe 78bf 4338 49c1 39d0 b5bf
00000580: 18da 2ac1 d837 aabf 962c d226 9c63 b63f
00000590: 9191 86ad 8d0c 9cbf acbb 17df 5889 a5bf
000005a0: 9090 d4dd dae8 c0bf 19f5 32c2 b84b bfbf
000005b0: 0e70 27ce 7971 833f 5560 7987 e39c a53f
000005c0: 53c6 7f34 1728 b5bf 4256 8e28 cd2e 97bf
000005d0: cfdd 4a1e 7ac0 c23f f704 1fd5 d102 bbbf
000005e0: 41bd 6fcc a2a6 bdbf 2d7a faf2 b790 a1bf
000005f0: e648 c784 f2ff b63f 31cb 6bb4 6dd1 b03f
00000600: c0f0 0832 ef63 a83f 1cb9 9a47 879f 7cbf
00000610: a3b7 1a94 90db b9bf 051b b1f0 5f6b b6bf
00000620: e7ca c692 1bfd ab3f ba69 7401 df88 b53f
00000630: ed0e 22dc 5179 b8bf 65ef 12a4 17b3 b23f
00000640: 990c c189 d1ac 8cbf 1ac2 df35 89ab bbbf
00000650: 4753 23ba ca1b c0bf 2e13 78dd 0295 a63f
00000660: 69b2 98fe 8a9f 6e3f 44f4 eb82 3440 a63f
00000670: 11a5 cccd 5712 aebf b1e6 19f9 76a2 a93f
00000680: d2a8 e7ca 8f46 953f f9f5 f86b c5fc 9c3f
00000690: 9299 140c 15df bf3f 88e6 5b95 0143 85bf
000006a0: 0d10 d113 53fe 7a3f 7076 6fbf 24e5 91bf
000006b0: 8e28 59f0 5fe5 b9bf 2ccd 7b7d 3307 b03f
000006c0: 03ee 41f3 ccd0 75bf 648e 762a 07a0 c5bf
000006d0: e571 61f9 addd c03f e522 8c50 cd04 c1bf
000006e0: 93ca cc74 846e 9dbf 96d7 f2ac 648a a7bf
000006f0: bc0b b5e1 9a55 94bf c6fc 9aa5 c4a7 b73f
00000700: a7c7 c24f 050c b93f 02c5 1bbd fadf adbf
00000710: 9d94 61dc 56ae aebf 3c5d cd87 9654 a43f
00000720: f5da 03b8 ba42 c2bf 228e 8881 31fc b1bf
00000730: de03 7943 d795 c2bf 71dd f934 02d9 be3f
00000740: c1db b7b6 6596 c0bf bfbf 8b35 893c bfbf
00000750: d369 a0b6 bda7 90bf 5bb8 82f4 e423 603f
00000760: 1d42 36ab 186d a53f f8f5 4b88 b3d4 a0bf
00000770: 0e95 b502 7efc adbf a927 e62e ce07 98bf
00000780: e0f5 ad3b 846f 80bf 2428 0fc3 5df8 c0bf
00000790: a74c c64e 8949 bd3f 8e4e 795e aef4 babf
000007a0: fedf 502a d9e2 c13f 303a 6f57 b030 b7bf
000007b0: 147d 689f 2fbf c1bf da95 d2ba bcc3 9d3f
000007c0: cfa2 4221 3c80 bd3f 585f d2a6 1faf afbf
000007d0: 3c46 8eb0 7d9c bdbf 1370 1bb8 bf80 a8bf
000007e0: 5090 7925 5b73 b43f 75c2 defc 1d69 9c3f
000007f0: cb4b c519 f835 56bf 9399 d927 fe3a c0bf

hidden.2.bias f8 [50]
0.08599754759723963 -0.10741333190379469 -0.05751113631309764 -0.08552236463384713 0.15045125980171534 -0.13295031951978167 0.08428384382621369 0.033371010814185774
-0.10626455827905287 -0.06434828920991231 -0.06281462687643445 0.02186535301449333 0.09869310380556706 -0.05908189162907927 0.054095980325007294 0.08473209481283436
0.07402736557856017 0.023332530352518536 0.07805557270262922 -0.01736760790828652 0.0014941841007217692 -0.0701546747170681 0.04444181085087838 0.14438357385719933
-0.09263608283276084 0.0019104717833624708 -0.07868053064880719 0.13283170923462628 -0.03251014020880669 0.023528589376935746 -0.13388357622680366 -0.14373736075054516
-0.11204273044936916 -0.041771669943606746 0.1099090568710576 0.038654173402132314 0.06027267781190843 -0.10353931602010269 -0.029157440956017338 0.13239281605444328
-0.039192520671160656 0.07449399362328227 -0.05192114558992411 -0.00978127346944424 -0.04088784112274839 0.1358537859459102 0.02833553129428755 0.053495454256020085
-0.10189107777136111 0.13929436400427125
00000000: 8e62 776e ef03 b63f 9362 aeab 707f bbbf
00000010: 0bb9 3d83 1972 adbf 5ad0 2d2f cbe4 b5bf
00000020: 57c4 3ea4 fc41 c33f 6944 2a1d 8404 c1bf
00000030: 1194 d040 a093 b53f fbab 2950 0116 a13f
00000040: 8e4c 8872 2734 bbbf a0ca b525 2179 b0bf
00000050: ef0c 2590 9e14 b0bf 2173 7300 df63 963f
00000060: 5886 2f85 f343 b93f 2e59 aa50 fb3f aebf
00000070: 1193 aee4 77b2 ab3f a687 24a8 00b1 b53f
00000080: 7140 2b1a 75f3 b23f 511f 309b 7be4 973f
00000090: 7a41 0734 73fb b33f 0343 e76f d0c8 91bf
000000a0: eb05 32f6 0f7b 583f 6442 9221 a8f5 b1bf
000000b0: beec 5bb8 13c1 a63f 3bec e533 297b c23f
000000c0: c23d 3292 ffb6 b7bf 4814 1675 194d 5f3f
000000d0: 0ff3 f741 6824 b4bf 886a 8423 a100 c13f
000000e0: 0c6c f849 2ba5 a0bf 4f6e 94e7 e017 983f
000000f0: 73cd aed6 1823 c1bf 6e87 d15f fc65 c2bf
00000100: 7eda 0817 d5ae bcbf d63b 9da8 1863 a5bf
00000110: 1b9f cbfc ff22 bc3f b46d 3bd5 7aca a33f
00000120: 99c7 1678 0fdc ae3f a813 2878 8d81 babf
00000130: 3b55 5dbd 72db 9dbf 4bef 966f 3ff2 c03f
00000140: b395 0fc5 0a11 a4bf 2245 5cd2 0912 b33f
00000150: f024 8f8c 6895 aabf 00e3 504d 3408 84bf
00000160: 363d da48 40ef a4bf c275 d627 a863 c13f
00000170: 9c1e e550 fd03 9d3f 6f4e 0795 c163 ab3f
00000180: 823d c89e 8815 babf f22d f5d0 65d4 c13f

hidden.4.weight f8 [50, 50]
0.022498954447158194 0.09600053460523696 -0.10244740660681155 0.05688084613830861 -0.05205004016977555 -0.1207373613838324 -0.0885038250431943 0.11724938796816867
0.12033691224257387 0.054165031433903374 -0.03259194965117471 0.05005068232887939 0.08194771493285179 -0.03290969015804075 0.08372419546266421 0.1373892896948432
0.12705522147775952 -0.09099314797757843 0.0745059470571746 -0.04823343949577868 -0.06508077872332252 0.14248602974534982 -0.07353706302928663 0.13142775530041484
-0.10484987443921331 -0.039911354026264015 0.010815802924625337 -0.016545736396405972 -0.12328834505818578 -0.027970815724462254 0.07570930151606031 -0.04211298508898254
-0.024393886730955855 0.0130570689434605 0.051286196150564664 -0.11274647352668911 -0.07685261000033836 -0.1135600798814187 0.07062359834256768 0.0948418484616557
0.1050868691150903 0.02621097523556348 -0.12008706286987512 -0.033509443909185206 0.05555498754958129 -0.08354171705408597 -0.049094570533443634 0.1211064571041427
-0.09341140465968018 -0.01612160147933949 0.12569368864377276 0.02546485762024823 -0.05723739771719018 0.13109043339191312 -0.13026866636393813 0.1333888606329096
0.01471963986913479 -0.14004563973020395 -0.03087057099950805 -0.02913559529760711 0.045199730216141244 -0.13247929857144408 -0.11141784976002506 0.1125577166978986
0.15561824357159823 0.09661310368299257 0.06842677148879585 -0.02272932957830037 -0.08071171670504121 0.10446457713811474 -0.09589971859392468 0.019052459971121025
0.05126746975096443 -0.03417809880796315 -0.02689722526802269 -0.02988158921663915 0.11387785863311747 -0.005966956310901164 -0.0028295236095615007 -0.020107946628077647
-0.03869454079714294 0.08051470466269689 -0.013685690294029397 -0.04143183494663003 0.00843275612407087 0.028461668674716226 -0.04566804439447522 -0.057004772297734416
-0.0035301982300255997 -0.03162203522473623 0.025148120950512182 -0.029453410578824436 -0.020712737636950685 0.032724908591667635 0.1298889937791193 0.04491745492486043
0.03943321997396628 0.004215361829763056 -0.02633970441783655 -0.04073411480795119 -0.08096937699359853 -0.042126315239656285 0.060431027149985134 -0.036902440970930865
0.13563644489518817 0.012687031724672176 0.13549211024691266 -0.1135522000477395 0.0480874256930149 -0.09698124778125868 0.010402398539006494 0.12392101638642919
-0.09355328377088029 -0.06404667020622803 -0.04886534512339864 -0.061317045130348614 0.06722925467008743 0.0878449183807091 -0.003145876171533183 -0.08382635262990176
0.10422058118218881 -0.0485272545882103 -0.0864744406622878 0.08416263362472667 0.08403958340191002 0.07835147989357985 0.057873245899120414 -0.0283885219915498
0.14188186274333797 0.07233955212578187 0.10407887014162237 0.043873034445112084 0.04488695503614311 0.03687526829884994 0.07008969940273785 -0.07561927580979463
-0.09693369894085686 0.13414248724332295 0.005904880156471969 -0.06179831516989379 0.06726421010627044 0.07030688074534792 0.13906549930063067 0.015527425658936445
0.12407069500638673 -0.017382730958569483 0.10451247779416124 -0.1408991189217567 -0.08583484658694197 -0.032881590490733435 0.07339339055337328 -0.05338356524263221
-0.029459546849145948 0.018734683934357555 0.006993721112294488 -0.07915636454786815 -0.05135163410479179 0.06342834950066284 0.0693743925679696 0.0990694901100308
-0.10476301939139052 -0.005833984087220313 0.004408452672729639 -0.07747979019810447 -0.07989234514496987 -0.1376720712932378 -0.08606001735868819 0.1405504625163878
0.008740781585157516 -0.12617656832714194 -0.10497034299729405 -0.046448142053152223 0.13466091464268232 -0.13687699281481483 -0.08303843492986392 0.006507460196997376
0.1292484505527613 -0.08284906737303878 0.04410685215347594 -0.07851068259510152 -0.12727808052160033 -0.11546638250419215 -0.12460134806201795 0.06418595779468823
-0.05471401325058562 0.07329515831940596 -0.10054133091374648 -0.007955947920362935 0.04264305153074483 0.0747120188700997 -0.053164667613841844 0.01246624959599693
-0.046117570155531425 0.08202032596373562 -0.01198953932458645 0.1026642954877932 -0.13162774209052497 -0.011511583875647817 0.09491191845903477 0.1300000441845123
0.1000227019429808 0.08891909310156709 -0.13114219052827347 -0.10124342310384787 -0.10484441061596142 0.11535877774791324 0.10876074075728066 -0.11327397014466542
0.13488986126873576 -0.007024859419304423 0.1061043523923422 -0.1428642600113827 0.050682850251403296 -0.09539762354390906 -0.031121947329718083 0.11678886224472756
-0.027620451070732605 0.027478091721881204 0.006100672662948497 -0.025669407778037313 -0.07712324365275945 -0.026065454883222847 0.07950299284467918 0.12155926671455097
0.05728898924070797 -0.09604353634709811 -0.11175683860500453 0.14546425557780165 0.06242555093972889 -0.061814829124911166 0.03749902272757675 0.07020044029067193
0.0416719721394367 -0.10483794556884583 0.04691802081692278 0.05815810007446501 0.05865306529299598 0.017459565822252006 -0.11321862407276212 0.10761831494155814
-0.03607650339735542 0.14025220621324724 -0.02720220921120624 -0.07682494829235612 -0.018560946778648366 0.14102580565522235 -0.04452575018377047 -0.09535238373442667
-0.07436408708966467 0.04160611071318597 0.05982297551565977 0.10104478336881936 0.12889729495043528 0.03045214869962118 -0.07801126321623694 0.014179544625700305
00000000: dacf 2d46 f709 973f 992b 87b4 7d93 b83f
00000010: 63af ef44 fe39 babf a69d dd7b 7c1f ad3f
00000020: 90c0 9188 4da6 aabf 4884 8cca a4e8 bebf
00000030: 17a5 21ca 2fa8 b6bf f29e cc4e 0e04 be3f
00000040: bc5e 955e 66ce be3f cedb 30dd 84bb ab3f
00000050: 8db6 ba5b e4af a0bf 8973 7d37 3ea0 a93f
00000060: ef57 9e83 86fa b43f da8a e6f5 89d9 a0bf
00000070: d263 65e9 f26e b53f c8ae 07e5 f895 c13f
00000080: cd39 8472 5843 c03f 2a4a b9b2 534b b7bf
00000090: 97d3 f75d d212 b33f 477a 6aaa 0db2 a8bf
000000a0: 9002 3748 22a9 b0bf 1753 f272 fb3c c23f
000000b0: 7f32 c130 53d3 b2bf 08a7 66eb 9fd2 c03f
000000c0: c6c4 b4fd 70d7 babf d252 90d0 426f a4bf
000000d0: b2df ba7e 9826 863f 19dc d792 5df1 90bf
000000e0: 2abc 0032 d38f bfbf 41b4 1dab 61a4 9cbf
000000f0: 1cb5 034e af61 b33f 2163 634b d58f a5bf
00000100: b858 ed06 b6fa 98bf cb0f c020 aabd 8a3f
00000110: a6e4 672e 2f42 aa3f 6955 89f0 f3dc bcbf
00000120: 5e4e 90d6 9cac b3bf 90ca 38fd 4512 bdbf
00000130: f608 355d 6314 b23f 1b5c 6f2d 8e47 b83f
00000140: cc9d 161a f9e6 ba3f 3f67 bbc5 0cd7 9a3f
00000150: 2fe5 b297 06be bebf e1e9 645b 2628 a1bf
00000160: 5b6e 4f0d b471 ac3f 1057 996e fd62 b5bf
00000170: 6961 b46d ec22 a9bf a0c2 9830 d500 bf3f
00000180: 2435 1650 cfe9 b7bf 3e9e 735c 2e82 90bf
00000190: 31f1 0415 bb16 c03f 2b7e b4aa 7513 9a3f
000001a0: 5261 9b5e 384e adbf 464d 1e42 92c7 c03f
000001b0: da02 ddc6 a4ac c0bf 96d6 08dd e212 c13f
000001c0: ab4f c69e 5425 8e3f 0a58 4bf9 03ed c1bf
000001d0: b92c 68f3 889c 9fbf 3d94 cfb3 b8d5 9dbf
000001e0: 95f8 2146 6b24 a73f a274 61e7 14f5 c0bf
000001f0: 6cf2 e854 e185 bcbf a041 2120 95d0 bc3f
00000200: 6786 6671 4ceb c33f 87fa aee8 a2bb b83f
00000210: 311a b7b9 6a84 b13f af93 cb7c 5b46 97bf
00000220: 8af4 a6e7 85a9 b4bf 600f 66c6 30be ba3f
00000230: 6a77 0e4b e28c b8bf fcef eff1 7c82 933f
00000240: f3ad dbd3 ba3f aa3f db43 3db1 ca7f a1bf
00000250: d267 843b f28a 9bbf 947b c081 4799 9ebf
00000260: 1e58 916e 1927 bd3f 8346 64a3 ce70 78bf
00000270: 64f2 b8eb f02d 67bf 1415 a174 2d97 94bf
00000280: add2 8356 c5cf a3bf f495 5f97 9c9c b43f
00000290: 6769 e341 3e07 8cbf ddd4 37b0 8d36 a5bf
000002a0: ebeb 245e 3145 813f a108 9740 0e25 9d3f
000002b0: 3c08 4b4a cd61 a7bf 162a 78c1 ba2f adbf
000002c0: 8d8e 48be 5ceb 6cbf 5914 3f6e c330 a0bf
000002d0: b538 27d4 6dc0 993f fd4f c4ec 0829 9ebf
000002e0: 7d9a 0b4b b835 95bf fde3 54b8 51c1 a03f
000002f0: 1322 32da 33a0 c03f 0ffa d7af 6bff a63f
00000300: ab0c 544c 9730 a43f b6b8 3193 2044 713f
00000310: 6c60 3ea4 cbf8 9abf 7f02 dd15 1adb a4bf
00000320: 793d 2aba 68ba b4bf 03b8 8294 9491 a5bf
00000330: 2cb6 8bca d0f0 ae3f 3fb6 3972 e0e4 a2bf
00000340: a23a 7cf7 885c c13f a3eb b992 a8fb 893f
00000350: b031 3033 ce57 c13f 3a09 98c9 c111 bdbf
00000360: 8a91 6641 ea9e a83f 25b8 8b57 c3d3 b8bf
00000370: 852e 334c da4d 853f fab2 aaa8 49b9 bf3f
00000380: ecb5 3aa6 1bf3 b7bf 1a15 f4d1 5c65 b0bf
00000390: 9aed 6ce6 e004 a9bf 3d5e 0b9f f264 afbf
000003a0: 9f79 24ba ef35 b13f 929f 902b 017d b63f
000003b0: 229d c468 61c5 69bf d6a0 16d3 a475 b5bf
000003c0: a163 bf33 33ae ba3f 2391 d776 90d8 a8bf
000003d0: 769c 955e 3023 b6bf 6aa3 f6ae ae8b b53f
000003e0: dbd9 473e 9e83 b53f d272 bcb3 d70e b43f
000003f0: f971 e6e4 8fa1 ad3f b455 2476 e111 9dbf
00000400: c668 3054 2f29 c23f bd67 964a d884 b23f
00000410: 8c80 76af e9a4 ba3f 776f 3cc0 8676 a63f
00000420: 4a65 cb47 6cfb a63f f5e3 bfae 50e1 a23f
00000430: 84a2 b806 66f1 b13f 9ede 8cec c85b b3bf
00000440: 6dcf d49a a5d0 b8bf e669 dbbd 942b c13f
00000450: 98a2 8a32 b72f 783f 4587 345d 07a4 afbf
00000460: 2503 992e 3a38 b13f ad2b 7cb9 a1ff b13f
00000470: 62c2 bff5 e5cc c13f a06c 2bcb d7cc 8f3f
00000480: 9cc5 71d9 18c3 bf3f c7cb ed53 c7cc 91bf
00000490: 7d5c 266a 54c1 ba3f b5ee e679 fb08 c2bf
000004a0: 39b6 f2c2 45f9 b5bf 0ba9 9817 dbd5 a0bf
000004b0: d356 2bc4 e8c9 b23f 5fd3 b835 1755 abbf
000004c0: 5797 16b9 a42a 9ebf 2d23 325b 2f2f 933f
000004d0: a13e 46b7 72a5 7c3f 62db 006d 9743 b4bf
000004e0: cc08 27ea c24a aabf 6c9e be1e d73c b03f
000004f0: 2661 422b 85c2 b13f 7cd1 0d3c 9e5c b93f
00000500: a6c1 1dce bfd1 babf ce8a c22d 60e5 77bf
00000510: aba9 e200 990e 723f f875 002d b7d5 b3bf
00000520: 1630 9921 d373 b4bf f175 e309 3d9f c1bf
00000530: 697b 0c80 0708 b6bf 1808 f9bb 8efd c13f
00000540: 24d9 65d8 afe6 813f 6348 3ec5 8d26 c0bf
00000550: ea28 391e 56df babf 8710 2806 0dc8 a7bf
00000560: 524a 38a0 913c c13f 5173 db6f 2f85 c1bf
00000570: c5b4 55c2 0142 b5bf b835 9e0b 91a7 7a3f
00000580: 6e65 1796 368b c03f a90d dfb2 9835 b5bf
00000590: faaf 0e5f 2c95 a63f e8f1 21ae 4619 b4bf
000005a0: 3a41 abec a54a c0bf 2f97 a470 348f bdbf
000005b0: d8c0 f6ba dfe5 bfbf 0533 97ad 7d6e b03f
000005c0: 399e 16a3 7903 acbf a3de efb3 78c3 b23f
000005d0: 26bd 2ba0 13bd b9bf cb5a 0341 354b 80bf
000005e0: 69cf 735f 4fd5 a53f 684b aaad 5320 b33f
000005f0: cd87 6839 6638 abbf af73 8cb2 e787 893f
00000600: 8190 2ddf b89c a7bf e61a 9fb9 48ff b43f
00000610: b97b 58ba f88d 88bf 7f42 960f 3548 ba3f
00000620: 6037 c387 2dd9 c0bf dc25 2ba2 6293 87bf
00000630: 7e3c c8c1 254c b83f ed21 2069 d7a3 c03f
00000640: 68e1 b379 169b b93f 4078 dcd4 66c3 b63f
00000650: 18ed b86d 44c9 c0bf ac86 2ac7 16eb b9bf
00000660: 3292 c352 15d7 babf 9fdb bb21 2788 bd3f
00000670: 4529 a470 bed7 bb3f 3e69 42dd 85ff bcbf
00000680: 8208 5b2b 1244 c13f 8545 7057 19c6 7cbf
00000690: c205 7da3 a729 bb3f 8610 4246 6049 c2bf
000006a0: d17e 9840 1af3 a93f bbb9 3c89 fa6b b8bf
000006b0: a43a e087 6ede 9fbf b4ce e0f7 dfe5 bd3f
000006c0: 18c1 3218 8948 9cbf 2037 3585 3723 9c3f
000006d0: 39ac 22d9 04fd 783f 8a4d a8cb 1449 9abf
000006e0: b702 4051 59be b3bf 397f 1d11 e7b0 9abf
000006f0: 86b7 33e2 4e5a b43f a892 1013 821e bf3f
00000700: 9962 6b7e fb54 ad3f 7c5c 9a27 4f96 b8bf
00000710: 31b0 e99e 189c bcbf 51c9 389e 929e c23f
00000720: 1e1c 71e7 3df6 af3f 1aa7 ff7a 31a6 afbf
00000730: 0d6a 7e68 1233 a33f ae96 36f3 a7f8 b13f
00000740: 1a56 ff5a 0756 a53f e717 99db a8d6 babf
00000750: d3e2 008a a305 a83f 1478 a203 e6c6 ad3f
00000760: 42b5 7c4a c607 ae3f 32f2 d5a0 ebe0 913f
00000770: 3ccd b04f e5fb bcbf 1fe7 1fb7 df8c bb3f
00000780: 0ac9 7d94 9e78 a2bf f259 70c7 c8f3 c13f
00000790: adaa c35b e5da 9bbf 4abc 6ec0 ccaa b3bf
000007a0: 199f 960d a401 93bf 9b32 9733 220d c23f
000007b0: 8f02 bd41 14cc a6bf 4829 bc89 0369 b8bf
000007c0: 8f08 0c5a 8609 b3bf fe5d a769 654d a53f
000007d0: f540 c7f6 1da1 ae3f b61f 0028 12de b93f
000007e0: 2a70 2de1 b47f c03f 38fd 071b d92e 9f3f
000007f0: 26bf 3bd0 8bf8 b3bf 9b35 8443 2a0a 8d3f

hidden.4.bias f8 [50]
0.03347304962166599 -0.10649688645112718 -0.024242193309396056 0.08562131859509935 -0.08983719999256755 -0.0022625530641806934 -0.09574025607423407 0.17527092180544285
0.08530907189307213 0.13979166598982817 0.11184385492729809 -0.12835867685378158 -0.10705852110982421 0.04331995027297953 -0.03624023712896245 0.025654199152098506
0.007630979059650568 -0.032516874001816715 0.04329685945544619 0.06890655543136642 -0.0662479909761517 -0.021088797774575622 -0.10419331668265606 0.08451615207964142
-0.09516944947517325 0.012765310290373625 0.033246545772215794 -0.10732566222840056 0.07900565946200688 -0.05514604146171181 -0.04345363955384319 0.08207819776663726
0.15161255990029446 -0.08686379657236117 0.011519563827823287 -0.1822850968925556 0.04974436539802034 0.043210593197789894 0.04394484935783861 -0.09827777549781488
-0.145386473077056 0.045922853467067815 0.14669776310621305 0.011657132988349986 0.14030446699087137 -0.11937498455304091 0.11662937645984439 -0.07196937383206056
0.061083643012081426 -0.13360453731301214
00000000: 224a d82a 6123 a13f 66f4 6e44 6143 bbbf
00000010: e7e5 c90d f2d2 98bf 3fd3 345b 47eb b53f
00000020: 7faa ee1b 92ff b6bf 4adc 50ed ea88 62bf
00000030: 47df bff4 6e82 b8bf 1e0d 8c0e 476f c63f
00000040: 2836 d5b9 d0d6 b53f 58ff d67c b1e4 c13f
00000050: 38db 2b83 cca1 bc3f 6556 9f9f 0e6e c0bf
00000060: 0bc1 ecee 2f68 bbbf 61a3 5f53 082e a63f
00000070: b74e 8992 148e a2bf d50d 7429 1845 9a3f
00000080: 5b6a f657 a941 7f3f 64d9 cf3c 0da6 a0bf
00000090: 86e4 c286 012b a63f 64c7 0e2a dca3 b13f
000000a0: 0c14 abda a0f5 b0bf a1d9 0343 4d98 95bf
000000b0: 9f20 9dc7 69ac babf 5473 2abd d9a2 b53f
000000c0: 58fe 1269 065d b8bf b579 c3f1 b224 8a3f
000000d0: 66e0 97f5 b005 a13f c8e2 4ad1 b179 bbbf
000000e0: 6896 9603 b739 b43f 67f0 2919 1a3c acbf
000000f0: 8146 8d31 8e3f a6bf d750 1fa7 1303 b53f
00000100: 29a1 3755 0a68 c33f 8514 7cad b43c b6bf
00000110: cdcb 3caf 9197 873f e1d1 d938 1e55 c7bf
00000120: 46ec 16ed 1778 a93f 1523 40e9 b21f a63f
00000130: d19d a375 f07f a63f 86ce af77 bb28 b9bf
00000140: 60c8 9221 069c c2bf 9063 8f43 3383 a73f
00000150: 5301 7807 fec6 c23f a8c6 99e7 b1df 873f
00000160: 43b0 9a2c 7ff5 c13f 1ca6 9de6 5b8f bebf
00000170: 08dd a53d 6cdb bd3f be1b ecba 956c b2bf
00000180: 4a67 1df2 5a46 af3f 08a5 2d17 f419 c1bf

output.weight f8 [1, 50]
0.981828094608207 0.994889320417078 0.9964997265574588 0.9989716453239949 0.9882685599221435 0.9813649485058953 1.005347085455073 0.943792852210974
0.997412949027573 0.9990528131206077 0.9918806553843144 0.9851818238669883 0.9768122228684563 1.007589237463807 0.9916082908557806 0.9618666364590094
0.9764491048707629 0.9928234553663489 1.0002823708902284 0.9848781588438913 0.9780304917134492 1.0028975522353556 0.9736817379026226 0.9814123581246587
0.999148058514983 0.9141133339518577 0.997548851523573 0.9857476330160083 0.9919414005856968 0.996855272211585 0.9865537205598999 0.9928733771205374
0.9687667622492142 0.994155708715631 0.9990755632281755 0.9406663735211648 0.9678132222195804 1.0073538304540797 0.9370822996158277 0.9601491803019135
0.966410121010609 0.9908186099073977 0.993008329324412 0.998407392691725 0.9920783382594477 0.8938644811206836 0.9979992982501285 0.9715704103228235
0.982690734957028 0.9901824943512891
00000000: 1a5c 94c0 226b ef3f ad97 ca20 22d6 ef3f
00000010: f930 0165 53e3 ef3f 2588 4962 93f7 ef3f
00000020: dcfa 1063 e59f ef3f e0c0 e876 5767 ef3f
00000030: 0989 52d3 e615 f03f f03a 4e11 8d33 ee3f
00000040: 5bc5 958f ceea ef3f cd8d ea9a 3df8 ef3f
00000050: 4324 0d80 7cbd ef3f 44ea 4308 9c86 ef3f
00000060: dbb2 f1b4 0b42 ef3f 8b56 6be4 151f f03f
00000070: 8860 754f 41bb ef3f 168f 568a 9cc7 ee3f
00000080: dc1b 7431 123f ef3f 8201 f0b1 35c5 ef3f
00000090: 6dd2 5b16 2801 f03f 42ef 5833 1f84 ef3f
000000a0: 52cd 0c9a 064c ef3f ca6d c14d de0b f03f
000000b0: 7822 a09a 6628 ef3f 0924 c1e3 ba67 ef3f
000000c0: 40e1 6559 05f9 ef3f e824 459b 6a40 ed3f
000000d0: 6b98 ae91 ebeb ef3f a738 bd9e 3e8b ef3f
000000e0: 500c 62e4 fbbd ef3f 51ce 1f07 3de6 ef3f
000000f0: 1ba9 b11b d991 ef3f 34a8 7963 9ec5 ef3f
00000100: 66fd 2927 2300 ef3f 3e17 02a2 1fd0 ef3f
00000110: 8787 c950 6df8 ef3f e30c d75d f019 ee3f
00000120: 2b39 426f 53f8 ee3f 43cf d40c 1f1e f03f
00000130: a255 d004 94fc ed3f 92b1 15c6 8ab9 ee3f
00000140: 6d72 08eb d4ec ee3f 2a41 ba3a c9b4 ef3f
00000150: 8953 6367 b9c6 ef3f 4242 760f f4f2 ef3f
00000160: 8b9e 3c12 1bbf ef3f e104 2faf 899a ec3f
00000170: be49 6d39 9cef ef3f 6821 43d4 1a17 ef3f
00000180: dc1f 17d7 3372 ef3f 8cef c932 93af ef3f
